…
        "trusted": true,
        "_uuid": "80d6284200bbc247f76e331aa6f2a6ed90af5ef6"
      },
      "cell_type": "code",
      "source": "#summary\nfrom keras.utils import print_summary\nprint_summary(model, line_length=None, positions=None, print_fn=None)",
      "execution_count": 16,
      "outputs": [
        {
          "output_type": "stream",
          "text": "_________________________________________________________________\nLayer (type)                 Output Shape              Param #   \n=================================================================\nconv2d_1 (Conv2D)            (None, 128, 128, 32)      896       \n_________________________________________________________________\nconv2d_2 (Conv2D)            (None, 126, 126, 32)      9248      \n_________________________________________________________________\nmax_pooling2d_1 (MaxPooling2 (None, 63, 63, 32)        0         \n_________________________________________________________________\ndropout_1 (Dropout)          (None, 63, 63, 32)        0         \n_________________________________________________________________\nconv2d_3 (Conv2D)            (None, 63, 63, 64)        18496     \n_________________________________________________________________\nconv2d_4 (Conv2D)            (None, 61, 61, 64)        36928     \n_________________________________________________________________\nmax_pooling2d_2 (MaxPooling2 (None, 30, 30, 64)        0         \n_________________________________________________________________\ndropout_2 (Dropout)          (None, 30, 30, 64)        0         \n_________________________________________________________________\nconv2d_5 (Conv2D)            (None, 30, 30, 64)        36928     \n_________________________________________________________________\nconv2d_6 (Conv2D)            (None, 28, 28, 64)        36928     \n_________________________________________________________________\nmax_pooling2d_3 (MaxPooling2 (None, 14, 14, 64)        0         \n_________________________________________________________________\ndropout_3 (Dropout)          (None, 14, 14, 64)        0         \n_________________________________________________________________\nflatten_1 (Flatten)          (None, 12544)             0         \n_________________________________________________________________\ndense_1 (Dense)              (None, 512)               6423040   \n_________________________________________________________________\ndropout_4 (Dropout)          (None, 512)               0         \n_________________________________________________________________\ndense_2 (Dense)              (None, 5)                 2565      \n=================================================================\nTotal params: 6,565,029\nTrainable params: 6,565,029\nNon-trainable params: 0\n_________________________________________________________________\n",
          "name": "stdout"
        }
      ]
    },
    {
      "metadata": {
        "trusted": true,
        "_uuid": "44ebe6d43752bfa48af0eede58d65499da316d82"
      },
      "cell_type": "code",
…
